…
101763         -1.137649            0.503417        -0.863958           0.497643          -0.21262  ...   1.079225  -1.079225       -0.546488         0.546488           0
101764          1.877333            0.096794         0.612506          -0.291461          -0.21262  ...   1.079225  -1.079225       -0.546488         0.546488           0
101765          0.537341           -1.529696        -1.602190          -0.291461          -0.21262  ...  -0.926591   0.926591        1.829868        -1.829868           0

[101766 rows x 2362 columns]
Index(['NO', 'YES'], dtype='object')
Dataset split shapes:  (61059, 2361) (61059,) (40707, 2361) (40707,)
creating pytorch dataset object ... ...
initializing neural net ... ...
Net(
  (classifier): Sequential(
    (0): Linear(in_features=2361, out_features=1600, bias=True)
    (1): BatchNorm1d(1600, eps=1e-05, momentum=0.1, affine=True, track_running_stats=True)
    (2): Linear(in_features=1600, out_features=800, bias=True)
    (3): BatchNorm1d(800, eps=1e-05, momentum=0.1, affine=True, track_running_stats=True)
    (4): ReLU()
    (5): Linear(in_features=800, out_features=400, bias=True)
    (6): BatchNorm1d(400, eps=1e-05, momentum=0.1, affine=True, track_running_stats=True)
    (7): ReLU()
    (8): Linear(in_features=400, out_features=100, bias=True)
    (9): BatchNorm1d(100, eps=1e-05, momentum=0.1, affine=True, track_running_stats=True)
    (10): ReLU()
    (11): Linear(in_features=100, out_features=32, bias=True)
    (12): BatchNorm1d(32, eps=1e-05, momentum=0.1, affine=True, track_running_stats=True)
    (13): ReLU()
    (14): Linear(in_features=32, out_features=2, bias=True)
  )
)
22
torch.Size([1600, 2361])
torch.Size([1600])
torch.Size([1600])
torch.Size([1600])
torch.Size([800, 1600])
torch.Size([800])
torch.Size([800])
torch.Size([800])
torch.Size([400, 800])
torch.Size([400])
torch.Size([400])
torch.Size([400])
torch.Size([100, 400])
torch.Size([100])
torch.Size([100])
torch.Size([100])
torch.Size([32, 100])
torch.Size([32])
…
